code/models/task_1/model.pt (torch, 382050 bytes, 8 tensors)

embedding.weight f4 [11, 4]
0	0xbea25818	-0.31707835
1	0xbe7c1445	-0.24617107
2	0x3fe156bb	1.7604593
3	0xbff45cc8	-1.9090815
4	0xbe0a069f	-0.13479088
5	0x3dd91bed	0.106010295
6	0xbf037541	-0.5135079
7	0x3fbe26db	1.4855608
8	0xbf2fe310	-0.68705845
9	0xbf84f09b	-1.0385927
10	0x3ee0e22c	0.43922555
11	0x3d54adec	0.051923677
12	0x3dbdad41	0.09261561
13	0x3e5e7df6	0.21727738
14	0x3eec61ee	0.46168464
15	0xbe9af9e3	-0.30268773
16	0xbedc9a75	-0.4308659
17	0x3f1d2db4	0.6139786
18	0xbf3902a7	-0.7226967
19	0xbfcbbed4	-1.5917611
20	0x3db1d2a5	0.086827554
21	0x3f1e4025	0.61816627
22	0xbfcf89dc	-1.6213946
23	0xc005d790	-2.091282
24	0x3ed20dd3	0.41026172
25	0x3f810129	1.0078479
26	0xc00430de	-2.0654826
27	0xc0103aae	-2.2535815
28	0x3fa75c41	1.3075029
29	0x3fd47991	1.6599599
30	0xc02c3898	-2.6909542
31	0xbf8c8ad3	-1.0979866
32	0x3e016c50	0.12638974
33	0x3f977522	1.1832621
34	0xbf5d6bff	-0.86492914
35	0x3fa8f13b	1.3198618
36	0x3f4adfac	0.79247546
37	0x3f5b4ed0	0.85667133
38	0xbfebc3d0	-1.8419132
39	0xbf1cac4b	-0.612004
40	0xbf83c2e3	-1.029385
41	0xbe239409	-0.1597444
42	0xbfe8b3ab	-1.817983
43	0x3e94de19	0.29075697

network.0.weight f4 [32, 4, 3, 3]
0	0xbbb950cb	-0.005655383
1	0x3da7759c	0.08176729
2	0x3d9c154b	0.07621249
3	0x3cc5b3a3	0.024133509
4	0x3e5d01be	0.21582696
5	0x3ea87284	0.32899868
6	0x3c980bce	0.018560316
7	0x3e189a3f	0.1490259
8	0xbe1e95a7	-0.15486775
9	0xbda942bd	-0.082646824
10	0x3e0f5b50	0.13999677
11	0xbd7c7ee9	-0.06164447
12	0xbddacd61	-0.10683704
13	0xbda99523	-0.08280399
14	0xbd88e33e	-0.06683968
15	0xbd834c34	-0.06411019
16	0xbd81b799	-0.063338466
17	0xbe53590e	-0.2063944
18	0x3e6bc4f9	0.23024358
19	0x3e8753aa	0.26431018
20	0x3d04bfce	0.03240948
21	0xbe1282db	-0.1430773
22	0xbe8fbec0	-0.28075218
23	0x3e3cd0b0	0.18438983
24	0x3e6eb7bc	0.23312277
25	0x3b0e4048	0.0021705795
26	0x3e762346	0.24036893
27	0xbd96119a	-0.07327576
28	0x3e2b4bdc	0.16728157
29	0x3d989944	0.07451108
30	0xbbbc6041	-0.005748779
31	0x3e9c2f2b	0.30504736
32	0x3df1f7c3	0.11814835
33	0xbd22b2a6	-0.039721154
34	0x3cecb681	0.028895618
35	0x3c1eab5f	0.009684413
36	0x3ec0f243	0.3768483
37	0x3eeb79d6	0.4599139
38	0x3e549031	0.2075813
39	0x3d388e40	0.045057535
40	0x3df9a4b9	0.121896215
41	0x3eaff069	0.34363106
42	0x3e6d97a2	0.23202375
43	0x3f2cef35	0.675525
44	0x3e9366ae	0.28789276
45	0x3e569030	0.2095344
46	0x3e8824a7	0.26590464
47	0x3dfee3bb	0.1244578
48	0x3e8df03e	0.27722353
49	0x3f2f109a	0.68384707
50	0x3f0773b1	0.52910906
51	0x3e8ce9ba	0.2752207
52	0x3f164100	0.5869293
53	0x3ec10ecd	0.37706605
54	0x3d6f15ca	0.05837039
55	0x3e5fa897	0.21841656
56	0x3e8cbf71	0.27489808
57	0x3e975eeb	0.29564604
58	0xbe833e91	-0.25633672
59	0x3e3941b3	0.18091469
60	0x3e085e43	0.13317208
61	0x3f13f6f1	0.5779868
62	0x3ebfff3c	0.37499416
63	0xbc42b5ad	-0.011884135
64	0x3da0335c	0.07822296
65	0xbd2a0424	-0.041507855
66	0xbd2f586c	-0.042808935
67	0x3e794d7e	0.24345967
68	0xbeaf9b41	-0.34298137
69	0xbdf97790	-0.12181008
70	0xbe94fcd3	-0.2909914
71	0xbe797f46	-0.24364957
72	0xbeba004c	-0.36328351
73	0x3e8764b7	0.26444027
74	0xbe98994e	-0.29804462
75	0x3f1f60a5	0.6225684
76	0xbd910025	-0.07080106
77	0x3ea6ac80	0.32553482
78	0x3e28dee9	0.16491283
79	0xbe6e73f6	-0.23286423
80	0xbe91e353	-0.28493747
81	0x3e3de038	0.18542564
82	0x3e695ac2	0.22788528
83	0xbe399b1b	-0.18125574
84	0x3e8ed8b5	0.2789971
85	0xbe6a5926	-0.2288557
86	0xbd6e4c13	-0.05817802
87	0x3eaf4110	0.34229326
88	0x3ea90a39	0.33015612
89	0xbdd5ffe9	-0.104492016
90	0x3d309e82	0.043119915
91	0x3e822554	0.25419104
92	0xbd2a1bc1	-0.041530374
93	0x3e3305ce	0.17482683
94	0x3dd8abd0	0.10579646
95	0x3e2ee938	0.17081153
96	0x3e45a936	0.1930283
97	0x3dbe1bfc	0.09282681
98	0xbe70c426	-0.23512325
99	0xbdeec0b2	-0.116578475
100	0x3d440596	0.04785689
101	0xbdc4cd27	-0.09609442
102	0x3defeb0d	0.11714754
103	0x3e3a244d	0.1817791
104	0x3d897fad	0.06713805
105	0xbd8f3dfc	-0.069942445
106	0xbe1c542d	-0.15266486
107	0x3d054e55	0.032545406
108	0x3e10ed06	0.14152917
109	0xbdf37bb3	-0.11888828
110	0x3d747c9c	0.05968915
111	0x3db75bc8	0.08953053
112	0x3f315cac	0.6928203
113	0xbd450614	-0.0481015
114	0x3df8a2db	0.12140437
115	0x3e70d8fa	0.2352027
116	0x3ed0e447	0.40799162
117	0xbc6c7f6e	-0.0144346785
118	0xbeac21c8	-0.33619523
119	0xbe43a12f	-0.19104455
120	0xbe84cd33	-0.25937805
121	0x3f0655d6	0.52474725
122	0xbe8e6af4	-0.27815974
123	0xbe0b9481	-0.13630868
124	0xbec4c2c5	-0.38429847
125	0x3d9a9f51	0.075499184
126	0xbc4fb1aa	-0.012676636
127	0x3e666a84	0.2250157
128	0x3e16b205	0.14716347
129	0xbe714960	-0.23563147
130	0xbeb73106	-0.3577959
131	0xbe855399	-0.26040342
132	0x3df5bf20	0.11999345
133	0xbd20025e	-0.039064758
134	0x3e668cb1	0.22514607
135	0x3e0ee16b	0.13953178
136	0xbe0144e1	-0.12623931
137	0xbd7f45a8	-0.06232229
138	0xbb85d2ac	-0.004083952
139	0xbe83e8ff	-0.257637
140	0xbe022e58	-0.12712991
141	0xbe40373f	-0.18771075
142	0x3e11f111	0.14252116
143	0xbe61779e	-0.22018287
144	0xbd7079d5	-0.058709938
145	0xbe257553	-0.16158037
146	0x3e7245d0	0.23659444
147	0x3d4b7233	0.049669456
148	0x3e1da99f	0.15396737
149	0xbe55f528	-0.20894301
150	0xbc0fc3d9	-0.008774721
151	0x3e7b48bf	0.24539469
152	0x3e1c3db9	0.1525792
153	0xbc914554	-0.017733254
154	0xbe674159	-0.22583522
155	0x3e3dc0f7	0.18530641
156	0x3ebb3362	0.3656264
157	0xbdecbe67	-0.11559754
158	0xbcdf7f7e	-0.027282473
159	0xbe451a3e	-0.19248292
160	0x3d2e381b	0.042533975
161	0x3de83934	0.11339036
162	0x3e27a837	0.16372763
163	0xbe99bd99	-0.30027464
164	0x3db76314	0.089544445
165	0xbe5afb42	-0.2138491
166	0x3ed13a13	0.4086462
167	0x3e361ff9	0.17785634
168	0x3d1dc5a8	0.038518578
169	0x3eadcdc2	0.33946043
170	0xbc27430a	-0.010208854
171	0xbdcd8cbe	-0.1003661
172	0x3e7926ad	0.2433116
173	0x3d48b7b5	0.04900332
174	0xbc05fe86	-0.008178359
175	0xbdbb9a9d	-0.091603495
176	0xbd771b5a	-0.06032882
177	0x3ccf0038	0.025268659
178	0x3dd8cc0e	0.10585795
179	0x3d524764	0.051337615
180	0x3e34a499	0.17640914
181	0x3e2c8a8e	0.1684973
182	0xbd8c027b	-0.068364106
183	0x3dc10518	0.094248
184	0x3e7ba93e	0.2457628
185	0xbe81edfd	-0.25376883
186	0xb9f1f482	-0.00046149275
187	0xbd4dd15a	-0.05024848
188	0x3dcb2db5	0.09920827
189	0x3d007eb5	0.031370837
190	0xbda045d9	-0.078258224
191	0xbd7351c5	-0.059404153
192	0xbe884069	-0.2661164
193	0x3f0f2447	0.5591473
194	0x3d4892ed	0.048968244
195	0xbd379b78	-0.044826
196	0x3d393746	0.04521873
197	0xbde56ecc	-0.112027735
198	0x3d9cea3e	0.07661866
199	0xbe0ebf34	-0.13940126
200	0x3d135e44	0.03597857
201	0x3d52388c	0.05132346
202	0xbe4cfcde	-0.20018336
203	0xbec05d60	-0.3757124
204	0x3ddffde0	0.10937095
205	0xbd9b1221	-0.07571817
206	0xbe42b21f	-0.1901326
207	0xbe0a9d0c	-0.13536471
208	0xbdd44624	-0.10364941
209	0x3ce6c95b	0.028172186
210	0xb9156b22	-0.00014249657
211	0xbe049cc2	-0.12950423
212	0x3db055b5	0.08610097
213	0xbe416290	-0.18885255
214	0xbdc34781	-0.09535123
215	0x3c200ce9	0.009768703
216	0x3cb1100a	0.021614093
217	0xbe3c99d9	-0.18418063
218	0xbd2d6580	-0.042333126
219	0x3ccfc9a3	0.025364703
220	0x3ea9f892	0.33197457
221	0x3dcbbfd2	0.09948696
222	0x3dcaa04b	0.09893855
223	0x3da12f38	0.078703344
224	0xbd6c3934	-0.05767174
225	0xbcb7641e	-0.022386607
226	0x3ce36213	0.027756726
227	0x3decd87e	0.1156473
228	0x3e0368b9	0.12832917
229	0x3eb13c67	0.34616396
230	0xbee0e72a	-0.43926364
231	0xbe952a86	-0.29134005
232	0xbdec39aa	-0.11534436
233	0x3d877830	0.06614721
234	0x3e3fc95a	0.18729153
235	0xbd5048ed	-0.050850797
236	0xbea28a28	-0.3174603
237	0xbe53f5f4	-0.20699292
238	0xbd87d967	-0.06633263
239	0x3ec18806	0.3779909
240	0xbe0d2e4f	-0.13787197
241	0xbe8d95de	-0.27653402
242	0x3dc1a911	0.09456075
243	0xbeb76ffc	-0.35827625
244	0xbe87f93c	-0.26557338
245	0x3d69c295	0.057070334
246	0x3d1eb2cf	0.038744744
247	0xbe765e74	-0.24059469
248	0xbebe9fb9	-0.37231234
249	0xbe373b26	-0.17893657
250	0x3ce96c08	0.028493896
251	0x3b5bd322	0.0033542593
252	0x3e22b887	0.15890704
253	0xbda9b3ae	-0.08286224
254	0x3c139911	0.009008662
255	0xbe64b865	-0.22335966

network.0.bias f4 [32]
0	0x3bc3b0ec	0.0059720185
1	0xbe1514cc	-0.14558715
2	0xbe10e46b	-0.14149635
3	0x3e3d5c7b	0.1849231
4	0x3d8cbd0c	0.06871995
5	0xbbb12b39	-0.005406764
6	0x3d1431e6	0.0361804
7	0x3cbecc21	0.023290696
8	0xbcd3b17c	-0.025841467
9	0xbd621123	-0.055192124
10	0xbe8b13c4	-0.27163517
11	0xbcf1c63d	-0.029513473
12	0xbdc7221b	-0.09723302
13	0xbde9e443	-0.114204906
14	0xbd97af5b	-0.07406493
15	0x3e4d10eb	0.20025985
16	0xbe9b4652	-0.30327088
17	0xbe1d8705	-0.15383537
18	0x3da3f31a	0.08005352
19	0xbe8f35fe	-0.2797088
20	0x3f003b8d	0.5009087
21	0xbdccc391	-0.09998239
22	0x3e36085c	0.17776626
23	0xbe331ddd	-0.1749186
24	0xbe446235	-0.19178088
25	0xbdfa5c06	-0.12224583
26	0xbe8d26db	-0.27568707
27	0xbdc5e734	-0.09663239
28	0xbe1e9636	-0.15486988
29	0xbe357a83	-0.17722516
30	0xbe99ed79	-0.3006399
31	0x3dc1391f	0.09434723

network.2.weight f4 [64, 32, 3, 3]
0	0xbe6e094a	-0.23245731
1	0xbe35e3b1	-0.17762639
2	0xbe7f8442	-0.24952796
3	0x3d8c9900	0.0686512
4	0x3c48110f	0.012211098
5	0xbe500302	-0.20313647
6	0x3e2b0e42	0.16704658
7	0x3dad5fb7	0.08465522
8	0xbde6e387	-0.11273866
9	0xbf4fdda5	-0.8119758
10	0xbef0ad44	-0.4700719
11	0x3dc216d0	0.094770074
12	0x3e257483	0.16157727
13	0x3e028376	0.12745461
14	0x3d3447ee	0.04401391
15	0x3f57058b	0.8399283
16	0x3ea4eb47	0.32210752
17	0x3dbe4263	0.09290006
18	0xbd4fa9f0	-0.050699174
19	0x3dd41920	0.10356355
20	0x3e078d5f	0.13237523
21	0x3de1dcc6	0.11028437
22	0x3e2fb3bb	0.17158405
23	0xbf130a1b	-0.57437295
24	0xbe2fc4d5	-0.17164929
25	0xbe1a9d56	-0.15099081
26	0xbe8f438b	-0.2798122
27	0x3de30684	0.11085227
28	0xbeb0df15	-0.34545198
29	0xbcb3e172	-0.021958087
30	0x3ddff393	0.1093513
31	0xbe520157	-0.20508324
32	0x3e982fe3	0.29724035
33	0x3e0e0de4	0.13872486
34	0x3dfc2705	0.1231213
35	0x3d951a7b	0.072804414
36	0xbbc2aff3	-0.005941385
37	0xbc23297d	-0.009958622
38	0xbe079226	-0.13239345
39	0x3e10844d	0.14112969
40	0x3d44c722	0.04804147
41	0xbec75bc4	-0.389372
42	0x3dfdd929	0.12394936
43	0xbe175ba1	-0.14781047
44	0xbeaf957a	-0.3429373
45	0xbe9d009c	-0.30664527
46	0x3da403d7	0.08008545
47	0x3dfb4a2e	0.12270008
48	0xbdb84ae4	-0.08998659
49	0x3dd50a9a	0.10402413
50	0x3e9c9336	0.30581063
51	0xbe4856af	-0.19564317
52	0xbec56871	-0.38556245
53	0xbdb575dc	-0.088603705
54	0x3df8b4a7	0.12143832
55	0xbd0f69fe	-0.03501319
56	0xbd26b415	-0.040699083
57	0x3dd29fa7	0.102843575
58	0x3e05b64f	0.13057826
59	0xbe61bf79	-0.22045697
60	0xbe81a8cb	-0.2532409
61	0x3b782513	0.0037863895
62	0x3e0acb68	0.13554156
63	0x3ea092e6	0.31362075
64	0xbe2899ed	-0.16464968
65	0xbe43c7f2	-0.19119242
66	0xbd3facba	-0.046795584
67	0xbea68612	-0.32524163
68	0x3eb07233	0.34462127
69	0x3d52d168	0.051469237
70	0xbd7529e7	-0.059854414
71	0xbedabe9d	-0.4272355
72	0x3db47428	0.088112175
73	0xbbba497e	-0.0056850305
74	0xbd02b6fc	-0.03191279
75	0x3e328849	0.17434801
76	0xbbe615b6	-0.007021631
77	0x3d20add4	0.039228275
78	0x3cb81327	0.02247007
79	0x3cf9de34	0.030501463
80	0x3ceab37f	0.028650044
81	0x3d9165b8	0.070994794
82	0xbf14ae46	-0.5807842
83	0xbd06f201	-0.032945637
84	0xba8c72b2	-0.0010715334
85	0x3e0a78a3	0.13522582
86	0xbdc94a3c	-0.09828612
87	0x3b54dad2	0.003247906
88	0xbdd0e0c5	-0.101991214
89	0x3e7bdb50	0.2459538
90	0xbd9fda85	-0.07805351
91	0xbe73ad6b	-0.23796622
92	0x3d1ce46e	0.038303785
93	0xbd95c359	-0.0731265
94	0x3e4a9bc0	0.19785976
95	0x3ec5407d	0.38525763
96	0xbc49eb71	-0.0123242
97	0x3d1fbbc4	0.038997427
98	0xbd4d0323	-0.05005182
99	0x3d819724	0.06327656
100	0xbe8f09ad	-0.2793707
101	0xbeae8192	-0.3408323
102	0x3e644011	0.22290064
103	0x3e94ac11	0.29037526
104	0xbe53e88f	-0.20694183
105	0x3dbd8e69	0.09255678
106	0xbe8717d9	-0.26385382
107	0x3edffc0b	0.4374698
108	0x3d888882	0.06666662
109	0xbc0c3c3c	-0.008559283
110	0xbeb66e88	-0.35631204
111	0x3c756791	0.014978305
112	0x3dd6f7a9	0.10496456
113	0xbe22c5ea	-0.1589581
114	0xbea11f0b	-0.31468996
115	0xbd85903f	-0.065216534
116	0xbc76dbb3	-0.015067029
117	0xbe15aea3	-0.146174
118	0x3dcbe323	0.09955432
119	0x3ef1b608	0.4720919
120	0xbb1e3511	-0.0024140517
121	0x3d2ccf05	0.042189617
122	0x3eae4e71	0.3404422
123	0x3e2eae51	0.17058684
124	0x3d562d33	0.0522892
125	0xbf13076b	-0.57433194
126	0x3dda7954	0.10667673
127	0xbd5bda11	-0.05367476
128	0xbd7d5be5	-0.061855216
129	0x3e6441f0	0.22290778
130	0x3d8d1d67	0.06890374
131	0xbdd10433	-0.10205879
132	0xbd789133	-0.060685348
133	0xbd810944	-0.063005954
134	0xbedef833	-0.43548736
135	0x3e2e42fb	0.17017739
136	0x3d79c641	0.060980085
137	0x3e076ae8	0.13224375
138	0xbe126c2f	-0.14299081
139	0x3dcc0059	0.09961004
140	0xbe465d9e	-0.1937165
141	0xbd06e02c	-0.03292863
142	0xbdc4703b	-0.09591719
143	0x3debd3bf	0.11514997
144	0x3b296ec6	0.002585338
145	0x3ddad2a8	0.10684711
146	0x3d655b7a	0.055995442
147	0x3e528cff	0.20561598
148	0x3e1c10f4	0.15240842
149	0xbe824fd5	-0.25451532
150	0xbdcb5b69	-0.099295445
151	0x3d1c9606	0.03822901
152	0x3dda224e	0.10651074
153	0x3c9f6e57	0.019461794
154	0xbe8cd264	-0.27504265
155	0xbf1f0192	-0.6211177
156	0xbe941eb5	-0.28929678
157	0x3db4b7fe	0.08824156
158	0x3e0b5b52	0.13609055
159	0x3e65c021	0.22436573
160	0x3de76d05	0.11300091
161	0x3d309b3b	0.04311679
162	0x3e49331f	0.19648407
163	0x3e8fc5b4	0.28080523
164	0xbdbac1b0	-0.09118974
165	0x3e2a0013	0.16601591
166	0x3d4abdaf	0.049497303
167	0x3dd44e38	0.103664815
168	0xbe9af5a6	-0.3026554
169	0xbc675487	-0.014119274
170	0x3d8a4084	0.06750587
171	0x3bc2af64	0.0059413183
172	0x3d74352f	0.059621032
173	0x3dae1429	0.08499939
174	0x3d871099	0.065949626
175	0x3d83c505	0.06434063
176	0xbe92476e	-0.28570122
177	0x3ed4c6e4	0.41557992
178	0x3dc2b488	0.0950709
179	0xbdfbefed	-0.123016216
180	0x3c242216	0.010017892
181	0x3e46b89f	0.19406365
182	0xbd399626	-0.04530921
183	0xbd982b28	-0.074301064
184	0xbe36aa4f	-0.17838405
185	0xbed5675f	-0.41680428
186	0x3bca3d60	0.0061718673
187	0x3e6c8b8f	0.23100112
188	0xbecf2e45	-0.40464988
189	0xbcd0474e	-0.025424626
190	0xbea16f06	-0.31530017
191	0x3ea04d96	0.31309193
192	0xbe9d5248	-0.30726838
193	0xbdf2ce20	-0.118557215
194	0xbe8a62ef	-0.27028605
195	0xbe9fea46	-0.31233424
196	0xbe31140f	-0.17292808
197	0x3b892453	0.0041852384
198	0x3d410ccf	0.047131356
199	0x3e049d6e	0.1295068
200	0x3e8e627e	0.2780952
201	0xbde90a45	-0.11378912
202	0xbd8b80d2	-0.0681168
203	0xbc92b309	-0.017907636
204	0xbcecf06e	-0.02892324
205	0xbe0e577d	-0.13900562
206	0xbd9e7076	-0.07736294
207	0x3e3a7190	0.18207383
208	0xbee2ee2d	-0.4432234
209	0x3db733a6	0.08945398
210	0xbe541ff8	-0.2071532
211	0x3ea8046a	0.32815868
212	0x3d890249	0.06689889
213	0xbe67f382	-0.22651485
214	0xbeaef64e	-0.3417229
215	0x3c0f255b	0.008736934
216	0x3d8feb0f	0.07027256
217	0xbe134163	-0.14380412
218	0xbe78a499	-0.24281539
219	0x3ef12a2b	0.47102484
220	0xbf0b47e6	-0.54406583
221	0xbe166dd7	-0.14690338
222	0xbe158bb6	-0.14604077
223	0x3ec876f1	0.39153245
224	0xbea97f86	-0.33105105
225	0x3e9b1c27	0.30294916
226	0xbd915cf2	-0.07097806
227	0x3e15319e	0.14569709
228	0x3e91b008	0.28454614
229	0xbe53d423	-0.20686392
230	0xbedc7cf4	-0.43064082
231	0xbe9814c4	-0.29703343
232	0x3e9d739f	0.30752274
233	0xbd9bcbc7	-0.07607227
234	0x3e8b1433	0.27163848
235	0x3dca64f3	0.09882536
236	0x3eed73b4	0.46377337
237	0x3e044952	0.12918594
238	0xbea30923	-0.31842908
239	0x3dd729e5	0.105060376
240	0xbdac8e1f	-0.08425545
241	0x3e85f0d7	0.2616031
242	0x3d12cfab	0.03584258
243	0xbd8f5c4b	-0.07000025
244	0x3cad8662	0.021182243
245	0xbe31e396	-0.17371973
246	0x3ef0d3e3	0.47036657
247	0x3dd96cdd	0.10616467
248	0xbba1261b	-0.0049178726
249	0x3e958d6c	0.2920946
250	0xbe91610e	-0.2839436
251	0x3de7e9d9	0.113239
252	0xbce7422b	-0.028229794
253	0x3d8c6bcf	0.068565
254	0x3ea36d62	0.3191939
255	0x3d426b91	0.047465865

network.2.bias f4 [64]
0	0x3ddd0999	0.10792846
1	0xbdeada0c	-0.114673704
2	0x3e8b07e8	0.2715447
3	0xbe19f56e	-0.1503503
4	0xbd36a56f	-0.044591364
5	0xbe0884fd	-0.13331981
6	0xbe21bd12	-0.15794781
7	0x3cae5469	0.021280484
8	0xbe2bf801	-0.16793825
9	0xbd408d7f	-0.04700994
10	0x3e7ccd4a	0.24687687
11	0x3d5cdcbd	0.05392145
12	0x3e911c65	0.28341976
13	0x3cee1046	0.029060494
14	0x3ddc5836	0.107590124
15	0x3e893fad	0.26806393
16	0xbe024861	-0.12722923
17	0xbe85520b	-0.26039156
18	0x3e004d71	0.12529542
19	0x3e8c73ba	0.27432042
20	0x3d430d74	0.04762025
21	0xbe4a6fb7	-0.19769178
22	0xbe68a859	-0.2272047
23	0x3e596fe6	0.21234092
24	0x3dcf96c5	0.10136179
25	0x3d8ad5d5	0.067790665
26	0x3e70869f	0.23488854
27	0x3e3decc9	0.18547358
28	0x3d91d96d	0.07121549
29	0xbd68bf4d	-0.056823064
30	0x3ea3108d	0.31848565
31	0x3ced15a3	0.028940981
32	0xbe7bc8b7	-0.24588285
33	0xbdde6243	-0.10858586
34	0xbe6e5970	-0.23276305
35	0x3d94d36a	0.072668865
36	0xbda64d07	-0.081201605
37	0x3dc15110	0.094392896
38	0xbe6191fc	-0.22028345
39	0x3a3f3ae9	0.000729485
40	0x3c70a2a9	0.014687219
41	0xbe217d52	-0.15770462
42	0xbe24579d	-0.16049047
43	0xbe759300	-0.23981857
44	0xbe4281ed	-0.18994875
45	0xbe7b1ae1	-0.24521972
46	0xbe542751	-0.20718123
47	0xbdd4c01b	-0.10388204
48	0xbdd3967f	-0.10331439
49	0x3da29023	0.07937648
50	0xbd6612ad	-0.056170154
51	0xbe374916	-0.17898974
52	0xbe9119e9	-0.2834008
53	0xbe33dcc8	-0.1756469
54	0x3de87be4	0.11351755
55	0xbe59ff37	-0.21288763
56	0x3d44e411	0.048069064
57	0xbcbf038e	-0.023317125
58	0xbddd13a1	-0.107947595
59	0x3d953592	0.07285608
60	0x3d8049cd	0.062640764
61	0xbe38de39	-0.18053521
62	0x3e10422c	0.14087743
63	0xbe15df24	-0.14635903

network.4.weight f4 [128, 64, 3, 3]
0	0x3d302baf	0.04301041
1	0xbd264fc5	-0.040603418
2	0xbe1aa479	-0.15101804
3	0x3e164d55	0.14677937
4	0x3e9be992	0.30451638
5	0x3dee5447	0.116371684
6	0x3ea2852a	0.3174222
7	0x3e1bef30	0.15227962
8	0xbe807cb6	-0.25095147
9	0xbbdeaaa9	-0.0067952466
10	0xbda5271e	-0.08064102
11	0x3d8dfa27	0.069324784
12	0xbe38d7e0	-0.180511
13	0xbda87943	-0.08226254
14	0x3e5ce2ed	0.2157094
15	0x3d8c10ce	0.06839143
16	0xbe8f67cc	-0.28008878
17	0xbe2f5aaa	-0.1712443
18	0xbe330329	-0.17481674
19	0xbd0946b9	-0.033514712
20	0xbda95c5d	-0.0826957
21	0xbeb6a7e6	-0.3567497
22	0x3cac78bf	0.02105367
23	0xbef68793	-0.4815031
24	0xbe3d91cc	-0.18512648
25	0x3dd40fbe	0.10354565
26	0xbdfb7225	-0.12277631
27	0xbeabc790	-0.33550692
28	0x3d1b7344	0.037951723
29	0x3dd7ad11	0.10531057
30	0x3d114b4e	0.035472207
31	0xbe282d52	-0.16423538
32	0x3da52855	0.08064333
33	0x3d2123f0	0.039340913
34	0xbe8092de	-0.2511205
35	0xbda76889	-0.081742354
36	0xbf00337b	-0.5007855
37	0xbe1b08c2	-0.1514006
38	0x3eaf12f0	0.34194136
39	0x3e19c079	0.15014829
40	0x3e7314dd	0.23738427
41	0xbdeb7049	-0.11496026
42	0xbf0fc978	-0.5616679
43	0xbeecd7e1	-0.46258453
44	0xbe991ade	-0.2990331
45	0xbd1ff00d	-0.03904729
46	0xbd43315c	-0.047654495
47	0xbd5880c7	-0.052857187
48	0xbe649355	-0.22321828
49	0xbee59ec2	-0.44847685
50	0xbdc98a22	-0.098408
51	0x3e9e324e	0.30897754
52	0xbf1bf323	-0.6091787
53	0x3d0feafa	0.0351362
54	0xbea76f48	-0.32702088
55	0xbeced281	-0.40394977
56	0xbf11120b	-0.56668156
57	0xbe441b38	-0.19151008
58	0xbe593210	-0.21210504
59	0x3e995b8a	0.2995265
60	0xbcf55f99	-0.029952811
61	0xbe2b8f6d	-0.16753931
62	0xbec6c1db	-0.38819775
63	0xbe96e365	-0.29470363
64	0x3de5bdde	0.11217855
65	0x3ddcf69c	0.107892245
66	0xbde2dfc2	-0.11077835
67	0x3d310b4f	0.043223675
68	0x3e1cc9f4	0.15311414
69	0xbd441bf8	-0.047878236
70	0xbe0aaa2b	-0.13541476
71	0x3eac6f5f	0.3367872
72	0xbe8a8fc9	-0.27062824
73	0x3da863a5	0.08222131
74	0xbf497c04	-0.7870486
75	0xbeb2e022	-0.34936625
76	0xbe82eade	-0.25569814
77	0xbe2765a2	-0.16347364
78	0x3d30d721	0.043173913
79	0xbc30e99a	-0.010797882
80	0xbed531c0	-0.4163952
81	0xbea1cc1b	-0.31601033
82	0x3e264f4a	0.16241184
83	0x3e211ba2	0.15733197
84	0xbe7783eb	-0.24171416
85	0xbf0d5e16	-0.5522169
86	0x3e5b5e81	0.21422769
87	0x3ed87cb9	0.42282656
88	0x3eaa3040	0.33239937
89	0x3ac0f85c	0.0014722454
90	0x3ea9db6b	0.33175215
91	0xbe90bdeb	-0.28269896
92	0x3cba443d	0.022737617
93	0x3d7f9a93	0.062403273
94	0x3e2c10d0	0.16803288
95	0xbe1a9f01	-0.15099718
96	0xbd10df9e	-0.035369508
97	0x3d940a23	0.07228496
98	0xbdefb4fb	-0.11704441
99	0xbc69f276	-0.014278999
100	0x3dcacd69	0.0990246
101	0x3e8e27de	0.2776479
102	0x3ddcceb8	0.10781616
103	0xbf06b92a	-0.5262629
104	0xbbff16e9	-0.0077847135
105	0x3dcca86d	0.09993062
106	0x3d8910a1	0.06692625
107	0xbe1c639b	-0.15272371
108	0x3e441620	0.19149065
109	0x3f3843f4	0.7197869
110	0x3cacbe1a	0.021086741
111	0x3c20f7e0	0.009824723
112	0xbf065fc6	-0.5248989
113	0x3e3eed25	0.18645151
114	0xbd4b36d9	-0.049612854
115	0x3d469929	0.04848591
116	0x3e98099c	0.2969483
117	0x3e2fd8ef	0.17172597
118	0xbe00f24f	-0.12592433
119	0xbd9e5b56	-0.07732265
120	0x3e5fdb48	0.21860993
121	0xbf1a7162	-0.6032926
122	0x3d367960	0.044549346
123	0xbdb55184	-0.088534385
124	0x3e072554	0.13197833
125	0x3b7ac6d8	0.0038265493
126	0x3d80ae80	0.06283283
127	0xbdede8d4	-0.11616674
128	0x3d954245	0.072880305
129	0xbe0f2bd9	-0.1398157
130	0xbdaa16c2	-0.08305122
131	0x3d8b0387	0.06787782
132	0xbe835263	-0.25648794
133	0xbe0791e0	-0.1323924
134	0x3d4b7fb1	0.049682323
135	0xbd055a5a	-0.03255687
136	0x3e3b90fc	0.18317026
137	0xbd9eebd1	-0.07759822
138	0xbca4aedd	-0.020102913
139	0x3de30b1c	0.11086103
140	0x3e823153	0.25428256
141	0x3df1df92	0.11810221
142	0x3dfcccd0	0.123437524
143	0xbe07b055	-0.13250859
144	0x3e6e45f2	0.2326887
145	0xbe680923	-0.22659735
146	0x3e19f597	0.15035091
147	0x3e554bed	0.20829745
148	0x3e97a79f	0.29620072
149	0x3e374020	0.17895555
150	0xbd0f2f26	-0.034957074
151	0x3d85c317	0.06531351
152	0xbd34d15a	-0.044144966
153	0x3beb548e	0.0071817106
154	0xbcc98dd5	-0.024603764
155	0xbecf44a5	-0.4048206
156	0x3dc7daf0	0.09758556
157	0xbe618cb4	-0.2202633
158	0xbced95d6	-0.029002111
159	0xbd33afc0	-0.04386878
160	0xbda1485d	-0.0787513
161	0xbf1419cf	-0.5785188
162	0xbdcca886	-0.09993081
163	0xbd24e995	-0.040261824
164	0x3e7d0a93	0.24711065
165	0x3e23d0f6	0.15997681
166	0xbded664d	-0.11591778
167	0x3d37e57e	0.044896595
168	0x3dd971bc	0.10617396
169	0x3da3ea79	0.080037065
170	0x3e44fcef	0.19237112
171	0xbdebb008	-0.11508185
172	0xbe210950	-0.15726209
173	0x3eb98e66	0.36241454
174	0x3e2abc9e	0.16673514
175	0xbe5671a8	-0.20941794
176	0x3e84de64	0.2595092
177	0xbdde3f41	-0.108519085
178	0x3f072f0e	0.52806175
179	0x3cf0e165	0.029404351
180	0xbe05f57b	-0.13081925
181	0xbe0d59da	-0.13803807
182	0x3bb4d738	0.00551882
183	0x3e0f7208	0.14008343
184	0xbec19bf9	-0.3781431
185	0x3ebc3556	0.36759442
186	0x3ea0d74d	0.3141426
187	0xbc833a7f	-0.016019104
188	0xbf0ba368	-0.54546213
189	0x3eabb06c	0.33533037
190	0x3e25d6f0	0.16195273
191	0xbeed8aa1	-0.46394828
192	0x3e9494b4	0.290197
193	0x3e494fcd	0.19659348
194	0x3e21af31	0.15789486
195	0x3e0d88a7	0.1382166
196	0x3eb07d59	0.34470633
197	0xbd2bbb7d	-0.04192685
198	0xbd9a9be4	-0.07549265
199	0xbf25b359	-0.6472679
200	0x3d24e40c	0.040256545
201	0xbe450ff6	-0.1924437
202	0xbef0143d	-0.4689044
203	0x3d9eca02	0.07753374
204	0xbe2f0914	-0.17093307
205	0x3bcf0f50	0.006318964
206	0x3e2ef82d	0.17086859
207	0x3e6f1264	0.23346859
208	0x3de1c5e8	0.11024076
209	0x3d63a4eb	0.0555772
210	0x3dd1be6d	0.10241399
211	0xbeef26c4	-0.46709263
212	0x3d8a67dd	0.067580916
213	0x3e205999	0.15659179
214	0x3dc7276e	0.097243175
215	0xbd5aeb9a	-0.053447343
216	0xbe36cb1e	-0.1785092
217	0xbce001c4	-0.027344592
218	0x3dbfd470	0.09366691
219	0x3d53ae40	0.05167985
220	0x3aea9f4e	0.001790026
221	0x3df83a82	0.121205345
222	0x3ec846c1	0.3911648
223	0x3d451d84	0.04812385
224	0xbe5aacc4	-0.21354967
225	0xbec51d5c	-0.38498962
226	0xbe016775	-0.12637122
227	0x3e5752ea	0.21027723
228	0xbc82284c	-0.015888356
229	0xbd06af07	-0.032881763
230	0xbe6e55be	-0.23274896
231	0x3e19fd7e	0.15038106
232	0x3b9fd6ce	0.0048779016
233	0x3e183588	0.1486417
234	0x3bf82ba7	0.007573563
235	0x3e03ad68	0.12859118
236	0x3d39b314	0.045336798
237	0x3e1250db	0.14288656
238	0xbe745306	-0.23859796
239	0x3cff78d5	0.031185547
240	0xbe832386	-0.2561304
241	0x3e109146	0.14117917
242	0x3dc1ae5b	0.09457084
243	0xbe4bd63b	-0.19905941
244	0xbce917fd	-0.028453821
245	0x3e33c3a3	0.17555098
246	0xbe0f6c90	-0.14006257
247	0xbda1073d	-0.07862709
248	0x3db6d450	0.08927214
249	0x3dc34b1d	0.09535811
250	0xbe542c2e	-0.20719978
251	0xbe9dc4b9	-0.3081415
252	0xbe9956f3	-0.2994915
253	0xbe86dbf2	-0.2633968
254	0xbe44b2c7	-0.19208823
255	0x3c66c74a	0.0140856

network.4.bias f4 [128]
0	0xbda95778	-0.082686365
1	0xbe2cebd3	-0.16886835
2	0xbec6c83e	-0.38824648
3	0xbcb67dd9	-0.022276806
4	0x3df720ba	0.12066789
5	0xbd967fc2	-0.073485866
6	0xbe7a4619	-0.24440803
7	0xbecba69b	-0.39775547
8	0xbeb7e973	-0.35920295
9	0xbedbf023	-0.42956647
10	0xbe315855	-0.17318852
11	0xbec89ef6	-0.39183778
12	0xbe8a2f71	-0.2698932
13	0xbe58580f	-0.21127342
14	0xbb845c14	-0.004039297
15	0x3e821421	0.25405982
16	0xbd59cd88	-0.053174525
17	0xbe53883d	-0.2065744
18	0xbe06847c	-0.13136476
19	0xbe1e41de	-0.15454814
20	0x3e58899d	0.21146245
21	0xbea4a413	-0.3215643
22	0xbe574d4c	-0.2102558
23	0xba63e20b	-0.0008693046
24	0xbe6cf819	-0.23141517
25	0xbd32ab37	-0.043620314
26	0x3d8603d4	0.06543699
27	0xbd8dd885	-0.069260634
28	0xbe7f22a9	-0.24915566
29	0x3e27e060	0.16394186
30	0xbe56e3f1	-0.2098539
31	0xbe09f7ce	-0.13473436
32	0x3c4d7382	0.012539746
33	0xbe644353	-0.22291307
34	0x3eeeb249	0.46620396
35	0x3e80fc0e	0.25192302
36	0xbe2dd364	-0.1697517
37	0x3e11ed14	0.14250594
38	0x3e960b38	0.29305434
39	0xbe675536	-0.22591099
40	0xbe9cfb93	-0.30660686
41	0xbd83f3f6	-0.06443016
42	0xbd87b154	-0.066256195
43	0xbb77ba34	-0.0037800195
44	0xbdccca98	-0.09999579
45	0xbe318fdd	-0.17340036
46	0xbe32a71d	-0.17446561
47	0xbdd87fcf	-0.105712526
48	0xbf00c206	-0.50296056
49	0x3da0d6a7	0.07853442
50	0x3d2b0d53	0.041760754
51	0x3f11fd15	0.570268
52	0xbded9c0e	-0.11602031
53	0xbead6c1e	-0.3387155
54	0xbe7847b8	-0.24246109
55	0xbe3966ea	-0.18105665
56	0xbdae2d60	-0.08504748
57	0xbe3540cc	-0.177005
58	0xbe0cd7b6	-0.13754162
59	0xbb64f657	-0.003493687
60	0x3f110c4f	0.56659406
61	0xbe0752b3	-0.13215141
62	0xbe884b0b	-0.26619753
63	0xbe419dec	-0.18907899
64	0xbdfec5de	-0.12440084
65	0x3d556cec	0.05210583
66	0xbe1a9238	-0.1509484
67	0xbc11e5ad	-0.008904857
68	0x3ebc8008	0.3681643
69	0xbd84278a	-0.06452854
70	0xbdb37099	-0.08761711
71	0x3f0be1fa	0.5464169
72	0x3d707ecc	0.058714673
73	0xbd3a9e59	-0.04556117
74	0xbe7b844f	-0.2456219
75	0xbdd2714c	-0.10275516
76	0xbe34f260	-0.17670584
77	0xbe29129a	-0.16511002
78	0xbd6d739a	-0.057971574
79	0xbddda526	-0.10822515
80	0xbeb4e645	-0.35331932
81	0xbcc41c67	-0.023939325
82	0xbdf6d409	-0.12052161
83	0xbe8350da	-0.25647622
84	0x3e01ac14	0.12663299
85	0xbd97a4f1	-0.07404507
86	0xbec51e22	-0.38499552
87	0xbe6954f6	-0.22786316
88	0x3eb2e284	0.34938443
89	0xbe5a3bf1	-0.21311928
90	0x3ee2fdd1	0.44334272
91	0xbdd1f951	-0.102526315
92	0xbe853d0a	-0.26023132
93	0xbe14e45f	-0.14540242
94	0xbd9a5cb7	-0.07537215
95	0xbe9d2957	-0.30695602
96	0xbe555336	-0.20832524
97	0xbeadd367	-0.3395035
98	0xbdc070b4	-0.093964964
99	0xbdec4ef8	-0.115384996
100	0xbd8174c2	-0.06321098
101	0xbe1f3f12	-0.15551403
102	0x3e3cff30	0.18456721
103	0xbe25c0ba	-0.161868
104	0xbec0799d	-0.37592784
105	0xbd78bd02	-0.060727127
106	0xbda17296	-0.07883184
107	0xbe6d8946	-0.23196897
108	0xbe15dfa5	-0.14636095
109	0xbe3a5c7b	-0.18199341
110	0x3e8fc9c5	0.28083625
111	0x3d5999ec	0.053125307
112	0xbe05d370	-0.13068938
113	0xbead5c6d	-0.33859578
114	0xbd946557	-0.072458915
115	0xbe8bd3f5	-0.27310148
116	0xbdfa9729	-0.12235863
117	0xbd0350d3	-0.0320595
118	0x3d084e98	0.033278078
119	0xbe441f82	-0.19152644
120	0xbe701640	-0.23445988
121	0xbeb8c61f	-0.36088654
122	0x3d8c1524	0.0683997
123	0xbdfab421	-0.12241388
124	0xbdef1780	-0.11674404
125	0xbe544dc5	-0.20732792
126	0xbdb54054	-0.0885016
127	0xbcef94f8	-0.029245839

network.6.weight f4 [1, 128, 3, 3]
0	0xbe8a8c37	-0.270601
1	0xbe095e75	-0.13414939
2	0xbd0ec01f	-0.03485119
3	0x3e515fbc	0.20446676
4	0xbd93928c	-0.07205686
5	0xbc9154bd	-0.017740602
6	0xbdece7a6	-0.11567621
7	0xbe4174cd	-0.18892212
8	0x3d8b21b3	0.06793537
9	0x3dbad89b	0.091233455
10	0x3d2df405	0.042469043
11	0xbc680c46	-0.014163082
12	0xbefbd49e	-0.49185652
13	0x3d88fcb5	0.06688825
14	0x3cf71d55	0.030165354
15	0x3d43625f	0.047701236
16	0xbd4fabe1	-0.050701026
17	0x3dbd5275	0.09244243
18	0xbdaaab77	-0.083334856
19	0x3dd1b7d7	0.10240143
20	0x3d9dd7cd	0.07707176
21	0x3d8ab73f	0.06773233
22	0xbe2e6f80	-0.17034721
23	0xbd4038f5	-0.04692932
24	0x3e13e560	0.14442968
25	0xbea32982	-0.31867605
26	0xbe123877	-0.14279352
27	0xbbaf7f54	-0.005355755
28	0xbcc56641	-0.02409661
29	0x3c26aa67	0.010172463
30	0xbb3b8f5b	-0.0028619382
31	0x3a2ee02c	0.00066709775
32	0x3c05fa04	0.008177284
33	0x3caae48e	0.020860936
34	0xbbffcea6	-0.007806617
35	0xbb17f968	-0.002318943
36	0x3c45d2a3	0.0120741455
37	0x3c9dd2f4	0.01926563
38	0x3d093750	0.033500016
39	0xbd20f049	-0.039291654
40	0x3e09204b	0.13391225
41	0xbe886465	-0.26639095
42	0x3dde2e06	0.10848622
43	0xbe54b1ae	-0.20770904
44	0x3c94a029	0.018142777
45	0x3c730c98	0.014834546
46	0xbc67dbb9	-0.014151507
47	0x3bd8af7b	0.006612716
48	0xbcc07b77	-0.023496373
49	0xbc3fc065	-0.011703585
50	0xbc99491c	-0.01871162
51	0xbc80cc8e	-0.01572254
52	0x3c3dead2	0.01159163
53	0xbb72ca3d	-0.0037046813
54	0xbd67babf	-0.05657458
55	0xbd88531f	-0.06656479
56	0x3e1a01fc	0.1503982
57	0x3dde2f17	0.108488254
58	0xbe1ba294	-0.15198737
59	0xbeb60ea5	-0.35558048
60	0xbd2b5493	-0.041828703
61	0xbcf3cdd6	-0.029761236
62	0x3e2c007e	0.16797063
63	0xbf068661	-0.52548796
64	0xbf9aca66	-1.2093017
65	0xbded6f49	-0.115934916
66	0xbc8e87f4	-0.017398812
67	0x3db2a1cd	0.08722267
68	0x3d864f33	0.06558075
69	0xbc8c9582	-0.017161135
70	0xbdb25136	-0.08706896
71	0xbced3167	-0.028954221
72	0x3d99bcfa	0.075067475
73	0x3d845a95	0.0646259
74	0x3dbb3363	0.091406606
75	0xbcb2c272	-0.021821234
76	0xbc275a8f	-0.010214462
77	0xbe59e892	-0.21280125
78	0x3d6beae6	0.057597063
79	0xbded9e0b	-0.1160241
80	0xbe47f235	-0.19525988
81	0x3baf778b	0.005354827
82	0xbd02715c	-0.03184639
83	0x3db07ce0	0.08617568
84	0xbe6588c2	-0.2241545
85	0xbdb636f8	-0.08897203
86	0xbe95dd2b	-0.292703
87	0xbfd36a2f	-1.651678
88	0xbe04ac6b	-0.12956397
89	0xbe0ec200	-0.13941193
90	0x3da02664	0.078198224
91	0xbe5edf1a	-0.21764794
92	0x3e9c8ca4	0.3057605
93	0x3edeeb4b	0.4353889
94	0x3e530eb0	0.20611072
95	0xbe611805	-0.21981819
96	0x3ee15a7d	0.4401435
97	0xbe889a24	-0.266801
98	0xbeebf1a5	-0.46082798
99	0x3d14c4e1	0.03632057
100	0x3aced28a	0.0015779298
101	0xbe53d9b3	-0.20688514
102	0x3d8cee12	0.06881346
103	0xbe52dd11	-0.20592143
104	0x3d79e559	0.06100974
105	0xbed89cdd	-0.42307177
106	0xbf9b0619	-1.2111236
107	0xbe21c002	-0.15795901
108	0x3d6a158e	0.057149462
109	0x3c8ceaba	0.01720177
110	0xbda011d3	-0.078159
111	0x3d4a33d0	0.04936582
112	0xbec2d639	-0.38054064
113	0xbf23c453	-0.6397144
114	0xbabff6ee	-0.0014645734
115	0xbd1bca2c	-0.038034603
116	0x3cfbf1bf	0.030754922
117	0x3ca40f6c	0.020026885
118	0x3d88f733	0.066877745
119	0x3e2f505f	0.17120503
120	0xbd09e231	-0.03366298
121	0x3e03f744	0.12887293
122	0xbbc01866	-0.0058622835
123	0xbcfa7c50	-0.030576855
124	0xbf1c1e6c	-0.6098392
125	0xbd9777b7	-0.07395881
126	0xbe47cd63	-0.19511943
127	0xbd1e22ba	-0.038607337
128	0x3e8dd62f	0.27702472
129	0xbe7d2769	-0.24722065
130	0x3d62c7d0	0.055366337
131	0xbe10f656	-0.1415647
132	0x3d25b7db	0.04045854
133	0xbe9324b7	-0.2873895
134	0x3dae02da	0.08496638
135	0x3d3cb858	0.04607424
136	0xbde34d59	-0.11098737
137	0x3e056346	0.13026151
138	0x3d20e3f2	0.039279886
139	0x3d1aa9e1	0.037759665
140	0x3d56d1c1	0.05244613
141	0xbc0cfa11	-0.008604542
142	0xbdcea150	-0.10089362
143	0xbc80c01a	-0.015716601
144	0x3e74e6b6	0.23916134
145	0xbe31801c	-0.17334026
146	0x3e81b984	0.2533685
147	0xbe1a8aa8	-0.15091956
148	0x3d55463f	0.052068945
149	0x3e6efcd7	0.23338638
150	0xbe18c135	-0.14917453
151	0x3d280a5f	0.041025516
152	0xbe9621b8	-0.293226
153	0x3f0c21aa	0.5473887
154	0xbe040058	-0.12890756
155	0x3e9b4e47	0.30333158
156	0xbf20162c	-0.6253383
157	0x3f2c1e4b	0.67233723
158	0xbdc1690f	-0.094438665
159	0x3f3528e5	0.70765525
160	0xbeb3e0fa	-0.3513258
161	0xbe6694d9	-0.22517718
162	0xbdefe9a3	-0.117144845
163	0x3d999082	0.07498266
164	0x3e81f006	0.25378436
165	0x3e981f10	0.297112
166	0xbe8fe031	-0.28100732
167	0x3d3a0ca2	0.045422204
168	0xbe8bc92b	-0.27301916
169	0x3e8260e1	0.25464538
170	0x3e0835fd	0.13301845
171	0xbdb00204	-0.085941344
172	0xbe07bf29	-0.13256516
173	0x3e1ba7fb	0.15200798
174	0x3d694506	0.05695059
175	0x3de7a2e9	0.113103695
176	0xbe39eac7	-0.18155967
177	0xbd532925	-0.05155291
178	0x3c4b1d97	0.0123971915
179	0xbd08f58a	-0.03343729
180	0x3c8467dc	0.016162805
181	0x3defe691	0.11713899
182	0xbd9d36e7	-0.076764874
183	0xbd3fc4c2	-0.046818502
184	0xbddc2d99	-0.107508846
185	0x3e0f93a9	0.14021172
186	0xbda79b6e	-0.08183943
187	0xbd968aa5	-0.07350663
188	0xbe3ee1e5	-0.1864086
189	0xbf31de89	-0.69480187
190	0xbef30fce	-0.47472996
191	0x3d5ac594	0.05341108
192	0xbf4ed939	-0.80800205
193	0xbda811de	-0.08206533
194	0x3d8a7230	0.06760061
195	0x3cfe4e5b	0.031043222
196	0x3c91e617	0.01780991
197	0x3d5a3835	0.05327626
198	0x3e09a04e	0.13440058
199	0xbd288f02	-0.041152008
200	0xbe7b6611	-0.24550654
201	0x3cf7459b	0.030184558
202	0x3dc5cba8	0.09657985
203	0xbd78f5da	-0.060781337
204	0x3e9bf68b	0.30461535
205	0xbdbd58a3	-0.09245422
206	0xbe74f11b	-0.239201
207	0x3b8590cc	0.004076099
208	0xbba28478	-0.004959639
209	0x3a37b916	0.0007008476
210	0xbbec8f03	-0.0072191968
211	0x3cb179dd	0.021664554
212	0x3ca509a3	0.020146197
213	0xbc94a049	-0.018142836
214	0xbc01e46c	-0.007927995
215	0x3cd2c5cf	0.025729088
216	0x3dec59cc	0.11540565
217	0x3e2c4dd9	0.16826572
218	0x3c526683	0.0128418235
219	0x3ca18e29	0.019721108
220	0xbe05e388	-0.13075078
221	0x3da1af00	0.07894707
222	0xbd9e7a8e	-0.07738219
223	0xbeca7027	-0.3953869
224	0xbdb9b7d4	-0.090682656
225	0x3eb47855	0.35248056
226	0xbeb976df	-0.36223504
227	0xbec54a88	-0.38533425
228	0x3e7951bc	0.24347585
229	0x3d9528de	0.072831854
230	0x3edd0876	0.43170518
231	0xbf02684f	-0.5094041
232	0xbe6cb9e1	-0.23117782
233	0x3f0513b6	0.519832
234	0x3cf8e96c	0.030384742
235	0xbe12f55e	-0.14351413
236	0x3eb94f37	0.3619325
237	0xbdea69b3	-0.11445942
238	0xbe1a2b71	-0.15055634
239	0xbe5f7e35	-0.21825488
240	0x3e3267e4	0.17422444
241	0x3e85316d	0.2601427
242	0xbd110e1b	-0.035413843
243	0xbcdbf596	-0.026850503
244	0x3c4bb018	0.012432121
245	0x3baa227f	0.0051921005
246	0x3bb183a8	0.005417306
247	0xbcea449a	-0.028597165
248	0xbcacf180	-0.02111125
249	0xbc22a2c9	-0.009926506
250	0x3cc1a0a0	0.023636162
251	0xbd01384e	-0.031547837
252	0xbde3e5b6	-0.11127798
253	0xbf5270f7	-0.8220362
254	0xbbe7b355	-0.0070709386
255	0xbccf88eb	-0.025333842
